data.pth (torch, 5674 bytes, 6 tensors)

l1.weight f4 [8, 59]
00000000: 2832 1abe 416b 133f ae96 8fbe 8093 283e
00000010: ebac 543e 0f77 c3be 66c2 043c f604 91be
00000020: 18e0 d1be 2615 06be 9e97 ff3e 6531 08be
00000030: f2cc 953e 0fef 6fbe 0ec6 213f 5893 46bd
00000040: 8807 de3e 4d5c c5be b81c a6be 2d32 203f
00000050: 6d81 58be ac76 023f 39ae f53e 75ea bb3e
00000060: 70bf b7bd 301c ad3e 4e45 9abe aee6 3c3f
00000070: efb9 82bd 1f46 103f bdbd 3fbe fdb3 2dbe
00000080: 3243 93be 9e78 edbe 78e5 263f cbe0 50be
00000090: 289d 16be 9603 92be 3a39 02be 814d edbd
000000a0: ba5b c5be a0c5 8cbe 2e7c c3be e600 08be
000000b0: af25 f93e f470 f73c 500a 5dbe 9e09 0e3f
000000c0: 5b82 87bd ef68 f9be 3bfc bfbc d055 833c
000000d0: 10f3 913e 5f02 ccbe e601 50be 7622 1ebe
000000e0: 6364 79bd 9b4f d13d 8d7d 66be 618a 82be
000000f0: 3071 5e3d a940 143f 8a3d 893e c020 103f
00000100: f50e c0bd f0d4 a53e c310 cd3e 05dd e73e
00000110: c127 f63e 9476 b13e 015c a8be 6699 7b3c
00000120: 32ae 50be d2a8 ec3d a866 03be 6c54 e73e
00000130: 99dc b5bd f547 b4be 01c0 053f 6a80 4fbd
00000140: 26e8 1e3f e0d3 303f 068c 473e 9de8 953d
00000150: ac48 f33e f0fe f8be 4213 813e 7cdf 82be
00000160: f553 833e 939b 39be 0009 bcbe 2066 6fbd
00000170: c19e d93e f3e5 413e 300d 55be 3417 2bbe
00000180: a779 f43e 9d8c fc3e c356 b53e 576a 32bf
00000190: 8eb7 abbe 0bc6 0abf 47ba 7ebe 4732 013e
000001a0: d52e 8cbe 912f 093e e90d 283e 1350 a03c
000001b0: ff36 abbe d554 b1bd 2aba 39be f052 b03e
000001c0: 07fd 31bf 98c3 f6bd db4c ccbe bf23 fe3e
000001d0: 3972 063f 4be1 94be ddae c7bd 7e5d 42be
000001e0: 975b cdbc 04fe 8f3e 6d60 8d3e eeef 08bf
000001f0: da1a 34bd 89df 0c3e 71a3 47bd bb8c 76bd
00000200: 45f9 043f adfe 053f 0901 e5bb c175 ec3e
00000210: fb2a 29be 02b4 033f a801 c63e 18ea 08bf
00000220: 5578 28be c70e 3d3f eb38 efbd bb61 393f
00000230: dcaa 2e3f 7598 353f eb53 e93e 5c7d 013f
00000240: 7b2f 9fbe 833a f9bd 2b5a 47be 83d8 94be
00000250: 3eda 75be c67f 973e 3018 e13b 7246 a33c
00000260: 8f92 3cbd c16f fa3e a992 1bbe 2d63 9dbd
00000270: bf14 0a3c ec5e 49bd 94f2 08bf 5484 bcbe
00000280: 0adf 43be f41d e83e 4785 07be 292a 40be
00000290: 65ea f13e 16ad 44be 0cd6 8d3d e82c 2fbd
000002a0: 0e3e 42be 46c9 98bd f37a 843e 2559 d2be
000002b0: d39e ed3e e8d0 01be c9f5 093d 10ff 973d
000002c0: ec8f 59be 76d9 823e e4d3 fb3d 9439 1dbf
000002d0: b455 8b3e 5701 953e f0d3 ac3c 629f 16be
000002e0: e1b8 a2be 0d3c 14bf 78d3 d7be cd1b 813e
000002f0: df16 213f d4d7 a13e 4141 d13e 57fd af3d
00000300: 8c40 f93e f2ec eb3e 0004 6b3d 6468 913e
00000310: b54d da3e a537 393e cff0 f73e 3301 0e3f
00000320: d93f 353f d5e3 423e 0207 833e 7ad9 c23e
00000330: 9270 ac3d 3872 333e cb64 9ebe be31 09bd
00000340: fdbe 093f 36ff 1f3e 7fcb 19bf aace 6b3d
00000350: a51b 9e3e e637 9e3e 46e0 d4be 9b64 b1bd
00000360: 6cd8 81be 0da8 243f 08cb 073e 58de ad3e
00000370: 70ae 063f de17 933d d1bc cc3e 34c9 acbb
00000380: 1ec1 033d d228 663e 4a53 46bd 78f1 413d
00000390: f378 8b3e 989d b73e d2c8 d13e 839f d93e
000003a0: b947 4f3e 5b63 1cbe 1f2f a13e dbf0 b83e
000003b0: 0faf 10be 3ad8 763e 7eda eb3e 7a65 1fbe
000003c0: 99e5 58bd 9636 5a3f 8f6e 1b3e ad83 9e3e
000003d0: de1b 013f 4f7d b93e 59d9 4bbe 5c31 bd3e
000003e0: 877f 653e 7ae3 003f 373b e93d 6fd8 fb3d
000003f0: a44c a9bd 88d8 743f a4a4 9bbe 6611 7dbe
-0.15058196 0.5758553 -0.28044647 0.16462517 0.20769088 -0.38176772 0.008102989 -0.28324097
-0.40991282 -0.13094005 0.49920362 -0.13300093 0.29257923 -0.23431037 0.6319283 -0.04848036
0.4336512 -0.38546982 -0.32443786 0.6257656 -0.21143122 0.5096233 0.47984484 0.36702314
-0.08972061 0.33810568 -0.30131 0.7378949 -0.0638312 0.56356996 -0.18724723 -0.16963191
-0.28762203 -0.46381086 0.6519389 -0.20398252 -0.14708388 -0.2851836 -0.12717143 -0.11587048
-0.38546544 -0.27494526 -0.3818068 -0.13281593 0.48661563 0.030205227 -0.21585965 0.55483425
-0.0661666 -0.4871287 -0.023435703 0.01603213 0.28505754 -0.3984556 -0.20313224 -0.15442833
-0.06088675 0.10220262 -0.22508831 -0.254962 0.054307163 0.57911164 0.26804763 0.5629997
-0.09377853 0.3238902 0.4005185 0.45285812 0.48077205 0.3466078 -0.32882693 0.015356397
-0.2037895 0.115556374 -0.12832129 0.45181596 -0.08879966 -0.3521115 0.522461 -0.050659575
0.6207298 0.69073296 0.19487008 0.07319758 0.47516382 -0.48632002 0.25210005 -0.2556113
0.25649992 -0.18125753 -0.36725616 -0.058447003 0.42503932 0.18935375 -0.20805812 -0.1670807
0.47749063 0.4932603 0.35417756 -0.6969351 -0.3353848 -0.5420844 -0.24875747 0.12616836
-0.2737948 0.13397051 0.16411556 0.019569432 -0.33440396 -0.086587586 -0.18137422 0.34438276
-0.69526714 -0.12049025 -0.39902386 0.49636647 0.5251804 -0.29078135 -0.097501494 -0.18980977
-0.025068088 0.28123486 0.2761263 -0.53491104 -0.04397092 0.13757147 -0.048739854 -0.060192805
0.51942855 0.5234173 -0.006988649 0.4618359 -0.16520302 0.51446545 0.3867314 -0.534822
-0.16452153 0.73850673 -0.11680778 0.7241475 0.6822946 0.70935756 0.45571837 0.5058191
-0.31090912 -0.12169363 -0.1946799 -0.29071435 -0.24009034 0.2958967 0.0068693385 0.019931052
-0.046038207 0.48913386 -0.15192665 -0.07684932 0.008427798 -0.04916279 -0.53495145 -0.36819708
-0.19128051 0.45335352 -0.13234435 -0.18766083 0.4724914 -0.19206652 0.06925592 -0.042767435
-0.18968984 -0.07460265 0.25875053 -0.41083637 0.46410236 -0.12677348 0.033681665 0.07421696
-0.21246308 0.25556535 0.12296274 -0.6141598 0.27213824 0.29102585 0.021097153 -0.14709237
-0.31781676 -0.5790413 -0.42153525 0.25216523 0.62925524 0.31609976 0.40870097 0.085932426
0.48682058 0.46079212 0.05737686 0.28399956 0.4263741 0.18087633 0.4842591 0.5547058
0.7080055 0.19032224 0.25591284 0.38056546 0.084199086 0.1752404 -0.30936274 -0.033494703
0.5380705 0.15624699 -0.60076135 0.057570137 0.30880466 0.30902022 -0.41577357 -0.08661767
-0.2536043 0.64318925 0.13261044 0.33958697 0.5260992 0.07182287 0.39987805 -0.0052730087
0.032166593 0.22476509 -0.048419274 0.047349423 0.27240714 0.35862422 0.40973526 0.4250451
0.20242204 -0.15272276 0.31481263 0.36121258 -0.1412928 0.24105921 0.46065134 -0.15566054
-0.052953336 0.8523954 0.15178894 0.30959836 0.50433147 0.36228415 -0.1990713 0.3695172
0.22411929 0.503471 0.113882475 0.12297141 -0.08266571 0.956429 -0.30399048 -0.24713668

l1.bias f4 [8]
00000000: f25c c53e ce6b 323f feec 083f 437f 403f
00000010: d4c7 443f 91ee 373f 4c81 043f 3241 f53e
0.38547474 0.69695747 0.5348662 0.75194186 0.76867414 0.718484 0.5175979 0.47901303

l2.weight f4 [8, 8]
00000000: f549 8f3e daff 9abd 1906 123d f1b3 c63d
00000010: 26a9 613d 3e90 98be d07e 27be 6101 a03d
00000020: 3ea6 a83f 87e9 4e3f aa1c 963f ea1b 583e
00000030: bfd2 583f c655 a3be a58d 083f de19 d8be
00000040: d41d 003e a2d2 b53e 21ec 67bf fae2 e4bd
00000050: 7726 873e af2f ba3e 9922 7d3f a382 36be
00000060: 3b39 95bf b33d 0dbf 9c84 9abe eff8 953f
00000070: 1f6a 9c3f 9c21 fc3e 3ee6 13bf bd61 60bf
00000080: 8027 4f3f f4c8 1abf ef88 89bf b143 403f
00000090: 950a 13bf 1ab2 703f f349 783f bd82 e43b
000000a0: b1c5 843f 1336 6c3f 338e 583f d079 633f
000000b0: 96c1 6dbf 436b 873f cbf0 76bf 2f99 623f
000000c0: e0e8 eb3e 3f24 7d3f 34f5 62bf 9ef8 c4be
000000d0: be3e 913f eae7 88be a05b 323e 1321 2abf
000000e0: 1058 8abf 14f0 153e 76d2 163f d780 b7bc
000000f0: d675 6bbc a23a 5bbe 3bed a03f 0544 383f
0.27986112 -0.07568331 0.035650346 0.0970229 0.055092953 -0.29797548 -0.16356969 0.07812763
1.3175733 0.80825084 1.1727498 0.21104398 0.84696573 -0.31901377 0.5334113 -0.42207235
0.12511379 0.35512263 -0.9059468 -0.11176105 0.26396534 0.36364505 0.98880917 -0.17823271
-1.165809 -0.5517227 -0.30179298 1.1716594 1.2219886 0.49244392 -0.57773197 -0.87649137
0.8091965 -0.6046288 -1.0744914 0.7510329 -0.5743802 0.9402176 0.9698784 0.006973593
1.0372831 0.9227001 0.8459198 0.88857746 -0.92873514 1.0579609 -0.9646117 0.8851499
0.46076107 0.9888343 -0.886554 -0.3847093 1.1347272 -0.26739436 0.17417765 -0.6645672
-1.0808125 0.14642364 0.5891489 -0.022400303 -0.014371356 -0.21409085 1.2572397 0.7197879

l2.bias f4 [8]
00000000: 736d 69be 8d64 85bd 9b1e b93e 8162 6d3f
00000010: e130 d43e 66d5 213f d58f 3a3f 953f da3c
-0.22795658 -0.06513319 0.36156163 0.9272843 0.41443542 0.63216245 0.7287572 0.026641646

l3.weight f4 [7, 8]
00000000: cd3d 5a3e 03ab 9abf 80c5 9cbd 1356 5c3f
00000010: eb01 523f fce1 833e eeb1 85bf 2abb 8fbf
00000020: c11f 91be 5b55 383f 254e 93bf 7666 da3e
00000030: 7b4c 58bf 889f 43bf 945f 91bf 49e4 213f
00000040: b3aa 96bd 09f8 b63e 353b d63e 42d1 6fbf
00000050: 4e35 f63e a2d5 01bf b05b 323e 4f1a 8dbf
00000060: 3033 d1be 1ff7 743b 1f01 a43d 3635 803f
00000070: f5a7 68bf 258a 20bf 5cb7 5c3f 949c 83bf
00000080: 5398 b73c 2426 d03e 7018 53bf 89b5 e2be
00000090: 8699 cfbe d1d5 673f fe69 09bf 42f9 79bf
000000a0: cc75 333e 0f10 ad3e fb73 003f a80c 3ebf
000000b0: 1e38 88bf 446f 71bf f5b3 e53e 3f3e 3c3f
000000c0: 0ed6 3e3e 480a fabe 6269 f43e ff6c 82bf
000000d0: f274 0e3f 5520 02be c29b 81bf 43f2 863f
0.21312638 -1.2083439 -0.07654858 0.8606884 0.82034177 0.2575835 -1.0444925 -1.1228993
-0.2834454 0.7200524 -1.1508223 0.42656296 -0.844917 -0.764153 -1.1357293 0.6323896
-0.07356777 0.3573611 0.41842046 -0.9367868 0.48087543 -0.507166 0.17417789 -1.1023654
-0.40859365 0.003737874 0.08008026 1.0016239 -0.9088128 -0.6271079 0.86217284 -1.0282159
0.022411501 0.406541 -0.82459164 -0.44279125 -0.40546817 0.9056063 -0.53677356 -0.9764596
0.17525405 0.33801314 0.5017697 -0.7423806 -1.0642126 -0.943104 0.4486386 0.7353248
0.18636343 -0.4883597 0.4773665 -1.0189513 0.55647194 -0.12707646 -1.0125659 1.0542682

l3.bias f4 [7]
00000000: 2e87 5cbc bee4 00bd 8f55 56bd 58ed 9c3c
00000010: 9be0 cdbd 6ea4 b2be 07be b33e
-0.013459964 -0.031468146 -0.05232769 0.019156143 -0.10052606 -0.34891075 0.35105917
